/home/isaac/isaacsim/exts/omni.isaac.ml_archive/pip_prebundle/torch/nn/init.py:452: UserWarning: Initializing zero-element tensors is a no-op
  warnings.warn("Initializing zero-element tensors is a no-op")
Actor MLP: Actor(
  (priv_encoder): Sequential(
    (0): Linear(in_features=0, out_features=64, bias=True)
    (1): ELU(alpha=1.0)
    (2): Linear(in_features=64, out_features=20, bias=True)
    (3): ELU(alpha=1.0)
  )
  (history_encoder): StateHistoryEncoder(
    (activation_fn): ELU(alpha=1.0)
    (encoder): Sequential(
      (0): Linear(in_features=48, out_features=30, bias=True)
      (1): ELU(alpha=1.0)
    )
    (conv_layers): Sequential(
      (0): Conv1d(30, 20, kernel_size=(4,), stride=(2,))
      (1): ELU(alpha=1.0)
      (2): Conv1d(20, 10, kernel_size=(2,), stride=(1,))
      (3): ELU(alpha=1.0)
      (4): Flatten(start_dim=1, end_dim=-1)
    )
    (linear_output): Sequential(
      (0): Linear(in_features=30, out_features=20, bias=True)
      (1): ELU(alpha=1.0)
    )
  )
  (actor_backbone): Sequential(
    (0): Linear(in_features=68, out_features=128, bias=True)
    (1): ELU(alpha=1.0)
  )
  (actor_leg_control_head): Sequential(
    (0): Linear(in_features=128, out_features=128, bias=True)
    (1): ELU(alpha=1.0)
    (2): Linear(in_features=128, out_features=128, bias=True)
    (3): ELU(alpha=1.0)
    (4): Linear(in_features=128, out_features=12, bias=True)
    (5): Tanh()
  )
)
Critic MLP: Critic(
  (critic_backbone): Sequential(
    (0): Linear(in_features=48, out_features=128, bias=True)
    (1): ELU(alpha=1.0)
  )
  (critic_leg_control_head): Sequential(
    (0): Linear(in_features=128, out_features=128, bias=True)
    (1): ELU(alpha=1.0)
    (2): Linear(in_features=128, out_features=128, bias=True)
    (3): ELU(alpha=1.0)
    (4): Linear(in_features=128, out_features=1, bias=True)
  )
)
Exception in thread NetStatThr:
Traceback (most recent call last):
  File "/home/isaac/isaacsim/kit/python/lib/python3.10/threading.py", line 1016, in _bootstrap_inner
    self.run()
  File "/home/isaac/isaacsim/kit/python/lib/python3.10/threading.py", line 953, in run
    self._target(*self._args, **self._kwargs)
  File "/home/isaac/isaacsim/kit/python/lib/python3.10/site-packages/wandb/sdk/wandb_run.py", line 152, in check_network_status
…
