…
  File "/media/isaac/Daten/azhar_ws/OmniIsaacGymEnvs/omniisaacgymenvs/tasks/anymal_terrain.py", line 1016, in post_physics_step
    self.get_observations()
  File "/media/isaac/Daten/azhar_ws/OmniIsaacGymEnvs/omniisaacgymenvs/tasks/anymal_terrain.py", line 1141, in get_observations
    privileged_obs = torch.cat((
RuntimeError: Expected all tensors to be on the same device, but found at least two devices, cpu and cuda:0! (when checking argument for argument tensors in method wrapper_CUDA_cat)
Set the environment variable HYDRA_FULL_ERROR=1 for a complete stack trace.
Actor MLP: Actor(
  (priv_encoder): Sequential(
    (0): Linear(in_features=28, out_features=64, bias=True)
    (1): ELU(alpha=1.0)
    (2): Linear(in_features=64, out_features=20, bias=True)
    (3): ELU(alpha=1.0)
  )
  (history_encoder): StateHistoryEncoder(
    (activation_fn): ELU(alpha=1.0)
    (encoder): Sequential(
      (0): Linear(in_features=48, out_features=30, bias=True)
      (1): ELU(alpha=1.0)
    )
    (conv_layers): Sequential(
      (0): Conv1d(30, 20, kernel_size=(4,), stride=(2,))
      (1): ELU(alpha=1.0)
      (2): Conv1d(20, 10, kernel_size=(2,), stride=(1,))
      (3): ELU(alpha=1.0)
      (4): Flatten(start_dim=1, end_dim=-1)
    )
    (linear_output): Sequential(
      (0): Linear(in_features=30, out_features=20, bias=True)
      (1): ELU(alpha=1.0)
    )
  )
  (actor_backbone): Sequential(
    (0): Linear(in_features=68, out_features=128, bias=True)
    (1): ELU(alpha=1.0)
  )
  (actor_leg_control_head): Sequential(
    (0): Linear(in_features=128, out_features=128, bias=True)
    (1): ELU(alpha=1.0)
    (2): Linear(in_features=128, out_features=128, bias=True)
    (3): ELU(alpha=1.0)
    (4): Linear(in_features=128, out_features=12, bias=True)
    (5): Tanh()
  )
)
Critic MLP: Critic(
  (critic_backbone): Sequential(
    (0): Linear(in_features=76, out_features=128, bias=True)
    (1): ELU(alpha=1.0)
  )
  (critic_leg_control_head): Sequential(
    (0): Linear(in_features=128, out_features=128, bias=True)
    (1): ELU(alpha=1.0)
    (2): Linear(in_features=128, out_features=128, bias=True)
    (3): ELU(alpha=1.0)
    (4): Linear(in_features=128, out_features=1, bias=True)
  )
)
=================================================================
Layer (type:depth-idx)                   Param #
=================================================================
ActorCritic                              12
├─Actor: 1-1                             --
│    └─Sequential: 2-1                   --
│    │    └─Linear: 3-1                  1,856
…
